…
          "base_uri": "https://localhost:8080/",
          "height": 459
        },
        "outputId": "cd4987ab-2ccf-446a-a2c4-a27303145284"
      },
      "source": [
        "model.summary()"
      ],
      "execution_count": 21,
      "outputs": [
        {
          "output_type": "stream",
          "text": [
            "Model: \"sequential\"\n",
            "_________________________________________________________________\n",
            "Layer (type)                 Output Shape              Param #   \n",
            "=================================================================\n",
            "conv2d (Conv2D)              (None, 150, 150, 16)      448       \n",
            "_________________________________________________________________\n",
            "max_pooling2d (MaxPooling2D) (None, 75, 75, 16)        0         \n",
            "_________________________________________________________________\n",
            "conv2d_1 (Conv2D)            (None, 75, 75, 32)        4640      \n",
            "_________________________________________________________________\n",
            "max_pooling2d_1 (MaxPooling2 (None, 37, 37, 32)        0         \n",
            "_________________________________________________________________\n",
            "conv2d_2 (Conv2D)            (None, 37, 37, 64)        18496     \n",
            "_________________________________________________________________\n",
            "max_pooling2d_2 (MaxPooling2 (None, 18, 18, 64)        0         \n",
            "_________________________________________________________________\n",
            "flatten (Flatten)            (None, 20736)             0         \n",
            "_________________________________________________________________\n",
            "dense (Dense)                (None, 512)               10617344  \n",
            "_________________________________________________________________\n",
            "dense_1 (Dense)              (None, 1)                 513       \n",
            "=================================================================\n",
            "Total params: 10,641,441\n",
            "Trainable params: 10,641,441\n",
            "Non-trainable params: 0\n",
            "_________________________________________________________________\n"
          ],
          "name": "stdout"
        }
      ]
    },
    {
      "cell_type": "code",
…
        "model_new.compile(optimizer='adam',\n",
        "              loss='binary_crossentropy',\n",
        "              metrics=['accuracy'])\n",
        "model_new.summary()"
      ],
      "execution_count": 47,
      "outputs": [
        {
          "output_type": "stream",
          "text": [
            "Model: \"sequential_1\"\n",
            "_________________________________________________________________\n",
            "Layer (type)                 Output Shape              Param #   \n",
            "=================================================================\n",
            "conv2d_3 (Conv2D)            (None, 150, 150, 16)      448       \n",
            "_________________________________________________________________\n",
            "max_pooling2d_3 (MaxPooling2 (None, 75, 75, 16)        0         \n",
            "_________________________________________________________________\n",
            "dropout (Dropout)            (None, 75, 75, 16)        0         \n",
            "_________________________________________________________________\n",
            "conv2d_4 (Conv2D)            (None, 75, 75, 32)        4640      \n",
            "_________________________________________________________________\n",
            "max_pooling2d_4 (MaxPooling2 (None, 37, 37, 32)        0         \n",
            "_________________________________________________________________\n",
            "conv2d_5 (Conv2D)            (None, 37, 37, 64)        18496     \n",
            "_________________________________________________________________\n",
            "max_pooling2d_5 (MaxPooling2 (None, 18, 18, 64)        0         \n",
            "_________________________________________________________________\n",
            "dropout_1 (Dropout)          (None, 18, 18, 64)        0         \n",
            "_________________________________________________________________\n",
            "flatten_1 (Flatten)          (None, 20736)             0         \n",
            "_________________________________________________________________\n",
            "dense_2 (Dense)              (None, 512)               10617344  \n",
            "_________________________________________________________________\n",
            "dense_3 (Dense)              (None, 1)                 513       \n",
            "=================================================================\n",
            "Total params: 10,641,441\n",
            "Trainable params: 10,641,441\n",
            "Non-trainable params: 0\n",
            "_________________________________________________________________\n"
          ],
          "name": "stdout"
        }
      ]
    },
    {
      "cell_type": "code",
…
